model_code/model/nn_model.pkl (torch_old, 56162 bytes, 6 tensors)

fc1.weight f4 [100, 34]
0.16064392 0.07711179 0.10388309 0.057193987 0.10715289 0.02903921 0.10659016 -0.03739345
0.055053428 -0.042480115 0.017741863 0.1685643 0.04203905 -0.038147915 0.046032086 0.17324503
0.13522731 -0.013589666 0.21519165 0.17035976 -0.026095113 0.09322795 0.19426262 0.05747262
0.1744882 0.19128942 0.054924473 -0.01190686 0.237997 -0.027297784 -0.079658955 0.0948856
0.099280454 0.110418275 -0.23668095 -0.10310106 -0.16022867 -0.15525895 0.06262464 -0.12619235
-0.038459558 0.08452412 -0.028441012 -0.07707268 -0.042081103 -0.0652594 -0.102731444 0.08040286
0.027053507 -0.10710539 -0.06422297 -0.08809854 0.013615732 -0.052207556 -0.22032405 -0.06588637
-0.14016776 -0.1696334 0.0019820067 0.037020937 -0.06358496 -0.12995698 -0.16867964 -0.08050144
-0.23000523 -0.123358145 -0.072841756 -0.22999787 -0.050985485 0.081072375 0.11615209 0.09460433
0.17113851 0.16800122 -0.11056149 0.03628482 0.091209576 0.13412465 0.06788173 0.0050476342
-0.041387394 0.031239465 0.09252302 0.069312826 -0.10839935 0.06268947 0.06325054 0.093285635
-0.09663065 0.07407668 0.15914656 -0.057037994 -0.02359669 0.16251014 0.027928218 -0.118469805
-0.17067984 -0.036904722 -0.014531523 0.17113034 -0.13755971 0.14308853 0.061245736 -0.17548522
0.033280127 -0.11354643 -0.11443475 0.1298431 -0.17336065 -0.06564727 -0.14544074 -0.024239497
-0.14299671 -0.12127633 -0.2052079 0.011580734 0.12856272 -0.24058822 -0.08714518 0.03143106
0.0041294643 -0.20423283 -0.09918128 -0.09724665 -0.14028616 -0.00013189425 0.054321583 -0.14515544
-0.04439387 -0.047474086 0.114444435 0.07069059 -0.0036326172 -0.07476532 -0.049611397 0.067047626
0.039056975 0.09393812 0.2037317 0.002103026 -0.18653855 -0.15800783 0.09882982 -0.15270334
0.012109493 -0.026366768 -0.15247668 -0.15023868 -0.12602334 -0.020755202 -0.021965215 0.12064705
-0.03151464 -0.21930124 -0.026772205 -0.16276592 -0.11956177 -0.068574905 -0.082916215 0.0077151684
-0.08610225 -0.029847898 0.10405222 -0.12750329 0.027483605 0.083643556 -0.15598632 0.018854715
0.12973352 -0.09675223 -0.37193596 0.095835984 -0.113485806 -0.04958941 0.014927328 0.12335713
0.07178611 -0.19228067 -0.31341723 -0.13351011 0.06891634 0.09196591 -0.067269914 -0.24986595
-0.14802134 -0.11641298 0.07714634 0.059483662 0.16068396 -0.14441967 -0.41075936 0.039900996
0.0783137 0.12802006 0.24873072 0.118194595 0.28399575 0.12893155 -0.024739752 -0.22626986
0.055285174 -0.04435979 -0.2212555 -0.20935653 -0.02068395 -0.059098136 -0.17721087 -0.0037650752
-0.0055721817 -0.08580397 -0.17051013 -0.10948314 0.03535453 0.28608727 0.10944967 -0.07860911
0.21868694 0.2156023 -0.12708665 -0.012268468 -0.07648872 0.056949135 -0.25490156 0.07960645
0.37308812 0.26748314 -0.049387936 0.07198313 0.1905827 -0.04303656 -0.001517765 -0.26784912
0.07520558 0.5302251 0.12322602 -0.030070238 -0.012341269 0.18949279 -0.35668048 -0.38120806
-0.08212508 -0.47895077 -0.01616992 0.41415426 -0.54858214 -0.279386 0.015012906 -0.3637549
-0.2789619 -0.06982375 -0.22026111 -0.07900733 0.58796954 -0.22251238 -0.21455169 0.029264659
00000000: d77f 243e c9ec 9d3d a8c0 d43d 3e44 6a3d
00000010: f972 db3d a3e3 ed3c f14b da3d e029 19bd
00000020: b47f 613d a1ff 2dbd 6257 913c 1f9c 2c3e
00000030: 2431 2c3d fd40 1cbd 248c 3c3d 2567 313e
00000040: 0779 0a3e 31a7 5ebc 335b 5c3e ca72 2e3e
00000050: 6bc5 d5bc 4cee be3d c8ec 463e 6968 6b3d
00000060: 09ad 323e 60e1 433e 7cf8 603d fe14 43bc
00000070: 7cb5 733e 9a9f dfbc 3c24 a3bd 6253 c23d
00000080: 8d53 cb3d fa22 e23d 7e5c 72be a626 d3bd
00000090: fc12 24be 34fc 1ebe 5941 803d 9138 01be
000000a0: c587 1dbd fb1a ad3d 20fd e8bc 48d8 9dbd
000000b0: 3c5d 2cbd b8a6 85bd dd64 d2bd 41aa a43d
000000c0: 519f dd3c 125a dbbd 5587 83bd 026d b4bd
000000d0: 8514 5f3c 97d7 55bd a19c 61be 6fef 86bd
000000e0: 2388 0fbe 61b4 2dbe 8ee4 013b 44a3 173d
000000f0: d538 82bd 7113 05be 5bba 2cbe f0dd a4bd
00000100: 7e86 6bbe 32a3 fcbd 0f2e 95bd 9084 6bbe
00000110: 28d6 50bd 4609 a63d 26e1 ed3d eabf c13d
00000120: ef3e 2f3e 8308 2c3e 106e e2bd 649f 143d
00000130: 16cc ba3d f957 093e 9405 8b3d a066 a53b
00000140: d485 29bd e8e9 ff3c b67c bd3d e2f3 8d3d
00000150: 7a00 debd 5663 803d 8089 813d 8a0c bf3d
00000160: 4ae6 c5bd 84b5 973d 51f7 223e aca0 69bd
00000170: d84d c1bc 0f69 263e b8c9 e43c 4ca0 f2bd
00000180: b2c6 2ebe 6829 17bd a015 6ebc cb3c 2f3e
00000190: 74dc 0cbe cd85 123e cfdc 7a3d 66b2 33be
000001a0: be50 083d 088b e8bd c45c eabd 97f5 043e
000001b0: 7485 31be 1372 86bd 6bee 14be e991 c6bc
000001c0: bb6d 12be b95f f8bd 0522 52be 1ebd 3d3c
000001d0: f2a5 033e c25c 76be 2c79 b2bd dbbd 003d
000001e0: 7550 873b 6922 51be 8e1f cbbd 4029 c7bd
000001f0: 2da7 0fbe 184d 0ab9 4f80 5e3d a1a3 14be
00000200: 59d6 35bd 3074 42bd d861 ea3d 3ac6 903d
00000210: 3411 6ebb 8f1e 99bd 5235 4bbd 4450 893d
00000220: 35fa 1f3d a162 c03d 0b9f 503e ecd2 093b
00000230: f603 3fbe cecc 21be 4a67 ca3d 445e 1cbe
00000240: e566 463c 1fff d7bc d922 1cbe 2bd8 19be
00000250: 430c 01be d006 aabc 65f0 b3bc cd15 f73d
00000260: 7f15 01bd 8190 60be 6251 dbbc 1cac 26be
00000270: cddc f4bd 0071 8cbd facf a9bd 86cf fc3b
00000280: 6056 b0bd 9483 f4bc 5519 d53d 3990 02be
00000290: 4c25 e13c 504d ab3d e1ba 1fbe 3475 9a3c
000002a0: ddd8 043e 0826 c6bd 646e bebe a845 c43d
000002b0: 3f6b e8bd 441e 4bbd c091 743c aaa2 fc3d
000002c0: 9904 933d 39e5 44be 3978 a0be e0b6 08be
000002d0: 0324 8d3d 9f58 bc3d cfc4 89bd dcdc 7fbe
000002e0: e892 17be ee69 eebd e6fe 9d3d 24a5 733d
000002f0: 568a 243e c0e2 13be 0d4f d2be 3a6f 233d
00000300: ef62 a03d b117 033e 44b3 7e3e 0210 f23d
00000310: e467 913e a206 043e 05ab cabc 49b3 67be
00000320: b572 623d 9cb2 35bd cd90 62be 8f61 56be
00000330: 6371 a9bc e310 72bd c476 35be 7bbf 76bb
00000340: d996 b6bb feb9 afbd 359a 2ebe b238 e0bd
00000350: e9cf 103d 087a 923e 2627 e03d d0fd a0bd
00000360: 78ef 5f3e d9c6 5c3e 0123 02be af01 49bc
00000370: 1ea6 9cbd 7f43 693d 7582 82be b508 a33d
00000380: 6805 bf3e 8df3 883e 014b 4abd e46b 933d
00000390: 1c28 433e 1b47 30bd beef c6ba 8523 89be
000003a0: 6205 9a3d d5bc 073f ec5d fc3d dc55 f6bc
000003b0: 0933 4abc 660a 423e d39e b6be b42d c3be
000003c0: 3231 a8bd 0939 f5be c876 84bc 070c d43e
000003d0: e16f 0cbf af0b 8fbe b1f8 753c 153e babe
000003e0: 18d4 8ebe c1ff 8ebd 218c 61be 98ce a1bd
000003f0: 2c85 163f 49da 63be 70b3 5bbe 70bc ef3c

fc1.bias f4 [100]
-0.062715344 -0.1465664 -0.116385266 -0.018862061 -0.13130601 0.07818747 0.06692674 -0.53150827
-0.08974785 -0.21593401 0.12643582 -0.02567288 -0.18843289 0.113316245 0.19527905 -0.056886725
0.22289082 -0.22549678 0.102980055 0.20634422 0.0873513 -0.016848622 0.022421991 -0.13954952
0.052475773 -0.06213376 0.20890014 0.43482852 0.09984974 0.24593863 0.053926453 -0.17625254
-0.220155 0.0036420848 0.019206682 -0.15669398 0.004728628 -0.14019199 0.104375236 0.1341426
-0.109574184 0.17467068 -0.003037542 0.059836425 -0.112486824 -0.25081116 -0.01426618 0.054194346
-0.12764004 0.021896353 -0.09872893 0.075389415 -0.22181125 0.01343437 -0.20459192 0.1417515
-0.2016354 -0.060498323 -0.11459082 0.2347881 -0.1470154 -0.07437116 0.05005379 0.22225203
0.09240649 0.06055436 -0.26593205 -0.07352304 0.07072084 -0.009019653 0.12785122 -0.026403403
-0.045167245 0.0027784521 0.16532828 0.024050288 -0.16665635 -0.030374948 -0.03587462 0.030803978
-0.019703092 0.23850167 -0.19946273 0.1838792 -0.18783067 -0.025442056 0.026704717 -0.011139249
-0.09094587 -0.10546513 -0.014710409 0.10132907 0.086433485 0.11412672 0.1422823 0.0741715
-0.03997972 0.11925835 0.03223217 -0.06879754
00000000: e770 80bd 8115 16be 665b eebd 9c84 9abc
00000010: 1575 06be c120 a03d e310 893d ed10 08bf
00000020: b9cd b7bd ce1d 5dbe 6478 013e ee4f d2bc
00000030: 8df4 40be 5912 e83d 3bf7 473e 0e02 69bd
00000040: 7e3d 643e a1e8 66be 35e7 d23d e64b 533e
00000050: 3de5 b23d 1f06 8abc 53ae b73c 12e6 0ebe
00000060: d6f0 563d f87f 7ebd ebe9 553e d8a1 de3e
00000070: 057e cc3d 56d7 7b3e fce1 5c3d 8c7b 34be
00000080: 5070 61be 0bb0 6e3b 5557 9d3c 6374 20be
00000090: 9bf2 9a3b 7d8e 0fbe afc2 d53d ae5c 093e
000000a0: 6e68 e0bd dfdc 323e 8011 47bb 0a17 753d
000000b0: 7e5f e6bd 526a 80be b2bc 69bc e4fa 5d3d
000000c0: 12b4 02be fb5f b33c 6532 cabd c465 9a3d
000000d0: 7d22 63be d51b 5c3c 8b80 51be 4e27 113e
000000e0: 8379 4ebe 17cd 77bd 98ae eabd 4b6c 703e
000000f0: 348b 16be e84f 98bd 3405 4d3d 0996 633e
00000100: 9d3f bd3d d907 783d 3f28 88be 3f93 96bd
00000110: 16d6 903d 2bc7 13bc 6eeb 023e f34b d8bc
00000120: 4a01 39bd b116 363b d14b 293e 1c05 c53c
00000130: f6a7 2abe e2d4 f8bc 44f1 12bd a058 fc3c
00000140: 6168 a1bc c839 743e f53f 4cbe d44a 3c3e
00000150: af56 40be dc6b d0bc dac3 da3c 6681 36bc
00000160: d441 babd 1afe d7bd ed03 71bc 9e85 cf3d
00000170: 0a04 b13d 45bb e93d 74b2 113e 3ae7 973d
00000180: c6c1 23bd b93d f43d e105 043d bae5 8cbd

fc2.weight f4 [100, 100]
0.097750135 -0.05678803 0.15618163 -0.0019372563 -1.071644 4.4214616 -2.9118009 -0.47289222
0.12325927 -0.014223722 -1.9457763 0.24790926 -0.07231379 0.61669725 -0.1322493 0.12639214
0.07013601 -0.019406429 0.032291297 0.46539053 1.7505915 1.9649951 -0.102059886 -0.0022729156
-0.09050851 0.056868516 0.056288194 -0.21214937 -0.008728437 -1.2498574 0.018524826 -0.78116524
-2.8470347 0.11643497 -0.04517762 -0.72282374 0.088030346 -0.7629428 0.027614845 0.11172352
0.022481797 3.1300087 0.011835952 0.11775244 -0.13001032 -0.043813687 0.068707265 -0.006161363
-0.036693938 0.05384959 0.05165368 -0.15323387 -1.7013332 0.79557264 -0.018091394 0.0066080736
1.7923069 -0.046935096 -2.6880631 0.7150096 0.04506954 0.78095245 -0.09131265 0.075614035
0.11632128 0.0035530464 -4.195011 -0.07857732 0.8359425 0.0015710088 0.15840577 -0.05634003
0.0015889376 -0.14579256 1.4834973 0.74291164 -0.09005092 -0.080705106 -0.6787669 -0.08926983
0.09368621 -0.038221557 -0.10514217 0.07468705 1.4210641 -0.16315055 -0.016750468 1.3214986
-0.8446545 3.9360516 -0.068173386 1.8743596 0.1303164 0.030598372 -0.02373744 -3.7191112
0.08059844 0.13219202 -0.021506995 -7.229851 0.17562379 -0.24270941 0.10998197 -0.1221674
0.33425128 -2.2172594 2.100831 0.030646408 0.15826659 -0.2529669 1.1866447 -0.104584254
-0.19073251 -0.3285606 0.05394583 0.18371344 0.21984899 -0.15732588 0.019382345 -0.21761513
-0.8524036 -1.2794595 -0.2395275 -0.22602534 -0.12133097 0.23070095 0.21579027 0.079814844
0.13094391 0.58797115 -0.24653746 0.1104131 1.723307 0.22412257 -0.15447776 0.07152103
0.026280114 0.080771595 0.21664388 0.17148955 -0.2176392 -1.3999429 0.07323742 0.14319186
-0.21971872 -0.19142823 0.13562994 -0.1669811 -0.20867701 0.21328086 0.2504399 -0.15733503
0.93914527 -0.18066078 -0.25086164 0.114940725 -1.5783759 -0.16156657 1.5884448 -0.356071
-0.11804097 -0.232887 -0.11851942 0.2384585 0.20811313 -0.18719015 3.863457 -0.14739557
-0.66383696 -0.1952448 0.11383129 -0.17623135 0.23063785 -0.20605597 -0.9949367 -0.11938178
-0.15654589 0.124772966 0.5050564 -0.2704465 -0.21627133 0.19065413 -0.18346499 0.24652788
-0.7646096 0.25020266 -0.054034304 -0.5383965 0.14061831 -2.3507576 -0.17664698 -1.2663928
-0.01908433 0.20933619 0.014313708 1.8138652 0.056222428 0.21941864 0.253069 3.6025167
-0.13199466 0.09431259 -0.14244719 0.15918808 0.13246527 0.038350854 0.107319616 0.17415163
-0.18500058 0.21484038 0.13265838 0.08447623 0.1034822 -0.11970662 -0.029730763 -0.15361404
-0.08080306 0.18450402 0.094368055 -0.06843406 -0.18203324 0.024993546 0.048536036 0.21401857
0.17869884 -0.13310021 -0.17486307 -0.023468278 -0.120267406 0.016673485 0.08821545 0.09806455
-0.049425367 -0.09533509 0.1661451 0.021688754 0.08220634 0.08443836 -0.12549745 -0.15006243
0.22548273 0.034555268 -0.07763694 -0.19033004 0.19967574 0.060739145 -0.16957462 0.21479425
0.20729125 -0.19311218 -0.13381635 0.18060572 -0.052409444 -0.06092447 0.2047219 -0.046866793
00000000: 3931 c83d 919a 68bd 14ee 1f3e 89eb fdba
00000010: a12b 89bf 9d7c 8d40 f25a 3ac0 ee1e f2be
00000020: 5b6f fc3d 9d0a 69bc 330f f9bf eddb 7d3e
00000030: 4119 94bd dfdf 1d3f 5c6c 07be f16c 013e
00000040: 78a3 8f3d 3bfa 9ebc e143 043d ab47 ee3e
00000050: 6213 e03f f684 fb3f c604 d1bd 32f5 14bb
00000060: 875c b9bd f6ee 683d 738e 663d af3d 59be
00000070: b801 0fbc 54fb 9fbf 60c1 973c 72fa 47bf
00000080: d135 36c0 7575 ee3d 2b0c 39bd fa0a 39bf
00000090: 4149 b43d 3850 43bf 8738 e23c 4dcf e43d
000000a0: bf2b b83c 1052 4840 95eb 413c 3128 f13d
000000b0: 6d21 05be fb75 33bd 65b6 8c3d 42e5 c9bb
000000c0: 624c 16bd 6391 5c3d cf92 533d 57e9 1cbe
000000d0: 49c5 d9bf a6aa 4b3f 6734 94bc 8a88 d83b
000000e0: 506a e53f 043f 40bd 3a09 2cc0 df0a 373f
000000f0: d79a 383d 80ec 473f 2002 bbbd 88db 9a3d
00000100: da39 ee3d 3ada 683b 883d 86c0 25ed a0bd
00000110: 5400 563f 4fea cd3a 1f35 223e cec4 66bd
00000120: e643 d03a a54a 15be 3de3 bd3f 752f 3e3f
00000130: 9e6c b8bd b848 a5bd abc3 2dbf 1ad3 b6bd
00000140: 8ede bf3d 358e 1cbd c754 d7bd 86f5 983d
00000150: 6ee5 b53f f010 27be 4738 89bc de26 a93f
00000160: 473b 58bf 45e8 7b40 7d9e 8bbd 04eb ef3f
00000170: aa71 053e 70a9 fa3c 0575 c2bc eb05 6ec0
00000180: cb10 a53d 585d 073e 702f b0bc f05a e7c0
00000190: b9d6 333e d188 78be 3a3e e13d e732 fabd
000001a0: fc22 ab3e 94e7 0dc0 0474 0640 2d0e fb3c
000001b0: a310 223e e184 81be f9e3 973f 4530 d6bd
000001c0: 624f 43be 1839 a8be 4df6 5c3d 601f 3c3e
000001d0: 1820 613e 091a 21be b9c7 9e3c 80d6 5ebe
000001e0: 1f37 5abf 54c5 a3bf b246 75be 3073 67be
000001f0: 5f7c f8bd df3c 6c3e 20f8 5c3e f775 a33d
00000200: 2916 063e 4785 163f 5174 7cbe 4320 e23d
00000210: 5395 dc3f 6380 653e 6b2f 1ebe 9e79 923d
00000220: 6549 d73c 946b a53d e5d7 5d3e f59a 2f3e
00000230: cfdc 5ebe 5431 b3bf 80fd 953d e3a0 123e
00000240: f2fd 60be c305 44be 93e2 0a3e 18fd 2abe
00000250: 6daf 55be 4c66 5a3e a939 803e 6f1c 21be
00000260: d36b 703f 24ff 38be f070 80be 0b66 eb3d
00000270: 3908 cabf b571 25be 2952 cb3f f04e b6be
00000280: 77bf f1bd ee79 6ebe 4fba f2bd 772e 743e
00000290: 9c1b 553e c6ae 3fbe e142 7740 ddee 16be
000002a0: 38f1 29bf 41ee 47be 6120 e93d fe75 34be
000002b0: 542c 6c3e 5600 53be 2cb4 7ebf 6f7e f4bd
000002c0: 914d 20be f888 ff3d 604b 013f f777 8abe
000002d0: 3b76 5dbe d63a 433e 3fde 3bbe ce71 7c3e
000002e0: 74bd 43bf 901a 803e 1353 5dbd 5ad4 09bf
000002f0: 3ffe 0f3e d072 16c0 f2e2 34be 2919 a2bf
00000300: be56 9cbc 3a5c 563e 0b84 6a3c bc2c e83f
00000310: 7d49 663d 48af 603e 4392 813e a28f 6640
00000320: 9c29 07be f626 c13d addd 11be 3302 233e
00000330: faa4 073e c915 1d3d 63ca db3d ce54 323e
00000340: cb70 3dbe 1eff 5b3e 99d7 073e e001 ad3d
00000350: 7aee d33d bf28 f5bd ee8d f3bc 004d 1dbe
00000360: 137c a5bd 9fee 3c3e 0a44 c13d 2827 8cbd
00000370: ec66 3abe 44bf cc3c b9cd 463d af27 5b3e
00000380: d4fc 363e 6c4b 08be 4e0f 33be 8c40 c0bc
00000390: c24e f6bd d596 883c 4daa b43d 11d6 c83d
000003a0: 4172 4abd 0b3f c3bd f121 2a3e 9dac b13c
000003b0: cc5b a83d 05ee ac3d 6782 00be f7a9 19be
000003c0: f2e4 663e d389 0d3d 1e00 9fbd e1e5 42be
000003d0: cc77 4c3e 9cc9 783d f8a4 2dbe 06f3 5b3e
000003e0: 2844 543e 33bf 45be 2707 09be b5f0 383e
000003f0: 49ab 56bd f08b 79bd 9ea2 513e 65f7 3fbd

fc2.bias f4 [100]
0.1393608 0.1989769 -0.17319652 -0.033617236 -0.10711075 -0.031336028 -0.13680546 -0.2127132
-0.09509323 -0.1389172 -0.03990688 -0.09861639 -0.21780415 -0.13622357 -0.16778585 -0.103604615
-0.12343051 -0.055906 -0.19372907 -0.13185333 -0.05051242 -0.034341782 -0.1919645 -0.0632243
-0.07042678 -0.16719095 -0.05749804 -0.052468285 -0.05123847 -0.08433134 -0.14729646 -0.02609507
-0.109162524 -0.15138823 -0.07493936 -0.14751357 -0.101062216 -0.09156074 -0.1695455 -0.09434524
-0.06638055 -0.083320305 -0.115263276 -0.17502412 -0.14270137 -0.042625945 -0.18789549 -0.1794215
-0.13612737 -0.17669247 -0.07055906 -0.1571311 -0.063110866 -0.15431792 -0.10725445 -0.17988935
-0.13817082 -0.17263877 -0.20841527 -0.056015443 -0.17330085 -0.035567246 -0.06762534 -0.19318362
-0.12583905 -0.10199246 -0.13374034 -0.050427653 -0.10030826 -0.10332039 -0.058500305 -0.119909085
-0.056068446 -0.10222661 -0.15451862 -0.093474865 -0.115215085 -0.19811045 -0.13946287 -0.14707828
-0.19011292 -0.18802008 -0.055205084 -0.07624936 -0.028486127 -0.061867766 -0.119671576 -0.20943499
-0.039096057 -0.05661722 -0.21188885 -0.033024415 -0.05545179 -0.21954997 -0.036230147 -0.19591355
-0.14903636 -0.11209323 -0.1429802 -0.14186713
00000000: 99b4 0e3e 9ac0 4b3e 6e5a 31be 3ab2 09bd
00000010: e25c dbbd 355a 00bd bb16 0cbe 7dd1 59be
00000020: 3dc0 c2bd 4f40 0ebe 6675 23bd 64f7 c9bd
00000030: 0d08 5fbe 317e 0bbe 0ed0 2bbe a82e d4bd
00000040: 23c9 fcbd b1fd 64bd ea60 46be 8f04 07be
00000050: 1ce6 4ebd f8a9 0cbd 5892 44be be7b 81bd
00000060: ea3b 90bd 1b34 2bbe 1183 6bbd fce8 56bd
00000070: 6edf 51bd e9b5 acbd e2d4 16be 54c5 d5bc
00000080: 9a90 dfbd 8405 1bbe cf79 99bd cc0d 17be
00000090: b5f9 cebd 3284 bbbd 569d 2dbe 1438 c1bd
000000a0: 87f2 87bd d6a3 aabd 270f ecbd 8639 33be
000000b0: 4f20 12be 8b98 2ebd ad67 40be 45ba 37be
000000c0: f964 0bbe dfee 34be 4581 90bd fae6 20be
000000d0: 4540 81bd 8405 1ebe 39a8 dbbd ea34 38be
000000e0: a77c 0dbe 38c8 30be d06a 55be 7370 65bd
000000f0: c775 31be f6ae 11bd 277f 8abd edd1 45be
00000100: f4db 00be 6ce1 d0bd 3af3 08be 3a8d 4ebd
00000110: 6b6e cdbd a499 d3bd 049e 6fbd e592 f5bd
00000120: 07a8 65bd 2f5c d1bd 213a 1ebe c06f bfbd
00000130: e3f5 ebbd 77dd 4abe 5bcf 0ebe b09b 16be
00000140: f6ac 42be 5688 40be ba1e 62bd a028 9cbd
00000150: bd5b e9bc 0e69 7dbd 5f16 f5bd 2076 56be
00000160: 3023 20bd 75e7 67bd 64f9 58be 9c44 07bd
00000170: 6b21 63bd b5d1 60be 1066 14bd 909d 48be
00000180: fd9c 18be 2391 e5bd 6769 12be 9e45 11be

fc3.weight f4 [2, 100]
0.010841891 0.07792447 -0.058204472 -0.034325935 -0.08090623 -0.019335948 0.035216905 -0.05288229
0.045062073 -0.024485253 -0.015390754 -0.095041655 0.0392297 -0.03018199 -0.09543111 -0.07038394
0.042486675 -0.07114203 -0.08013542 -0.056167793 -0.026072718 -0.04009849 -0.09915787 0.0031462312
0.034055687 0.01649721 -0.015446022 0.017627373 0.082943745 0.008512475 0.021421753 0.038405217
-0.0067010745 -0.027658418 0.05223293 0.03138011 0.06722512 0.062000163 -0.07519444 -0.093404055
-0.06348178 0.064284705 0.06712591 0.05003088 -0.07254734 -0.037725832 -0.020121947 -0.017725304
-0.05924548 -0.01347623 -0.082572795 0.058971293 -0.049747314 0.08478833 0.043889992 -0.067664534
-0.008446708 -0.09610342 -0.037539758 -0.07666589 -0.024503313 -0.09335839 -0.09482496 0.08042983
0.06292383 -0.06641898 -0.028674766 -0.08800062 -0.010303222 0.0020868406 -0.0014519915 -0.088765524
-0.016230151 -0.028509721 0.038944058 -0.06788939 -0.09404104 -0.024897061 -0.07419056 -0.026629373
0.09766271 -0.0925823 0.08496878 0.058122553 -0.028567716 0.0034096465 0.010981955 0.014937088
-0.05349263 0.04642033 0.096672796 -0.010221504 -0.02736386 -0.03921318 -0.06162231 -0.016275764
-0.0432402 0.052793615 -0.08210661 -0.04416263 0.04352116 -0.09916822 -0.03428463 -0.06870538
-0.0560053 0.097016774 -0.037120022 0.016744122 0.068213575 -0.026921019 -0.06394885 -0.07487432
-0.0054275393 0.00019472837 0.0023212284 -0.047587097 0.020420812 -0.071207985 0.0011179671 0.022976972
0.014278516 0.043921895 0.07611535 0.071198665 0.04164944 0.012910381 0.07696963 0.044570737
0.09638063 -0.09376236 -0.024995051 0.05259482 0.0018269792 -0.029889524 0.0058642253 -0.073984645
-0.07019083 -0.05097847 0.015608169 -0.029686809 0.0010326356 0.06721016 0.0860117 0.012144126
0.041024126 0.05282972 -0.017644629 -0.06082947 0.01057817 -0.04594784 -0.0089315325 0.01773642
-0.0059315786 0.09558255 -0.06508974 -0.0574574 0.0737545 0.07988279 -0.03209199 -0.0084827095
0.05503989 -0.00588201 -0.04683527 -0.09912639 -0.08728533 -0.061384678 -0.022094011 0.0125198215
0.0040520057 0.0646824 -0.09920187 0.012958333 -0.06564063 0.01867459 -0.055598546 0.0635185
-0.0068350807 -0.010326207 0.004175529 0.026712678 -0.076859795 -0.019470438 -0.053879797 -0.017903998
0.01698047 -0.05791823 -0.026691712 0.0813581 0.09396876 -0.09544225 0.023120426 0.017450966
-0.03761835 0.07642818 -0.092236675 -0.08690772 0.029631697 -0.0103333965 0.0844341 -0.08413565
00000000: 30a2 313c dd96 9f3d d067 6ebd 5a99 0cbd
00000010: 2ab2 a5bd 6c66 9ebc 9a3f 103d 1a9b 58bd
00000020: 0293 383d 4c95 c8bc 8029 7cbc 33a5 c2bd
00000030: 52af 203d 3840 f7bc 6371 c3bd 7525 90bd
00000040: 8206 2e3d eab2 91bd 0a1e a4bd 3310 66bd
00000050: 7496 d5bc 503e 24bd 4813 cbbd 0031 4e3b
00000060: fa7d 0b3d 2825 873c 5011 7dbc 4867 903c
00000070: 69de a93d e877 0b3c ac7c af3c ca4e 1d3d
00000080: b094 dbbb e893 e2bc 32f2 553d 6e88 003d
00000090: 53ad 893d e2f3 7d3d 8bff 99bd a04a bfbd
000000a0: bc02 82bd b3a7 833d 4f79 893d 2eed 4c3d
000000b0: b393 94bd 6786 1abd c8d6 a4bc a834 91bc
000000c0: 63ab 72bd 68cb 5cbc ed1b a9bd e28b 713d
000000d0: d7c3 4bbd 81a5 ad3d fec5 333d b493 8abd
000000e0: 1064 0abc dfd1 c4bd 4ac3 19bd 0203 9dbd
000000f0: 2cbb c8bc af32 bfbd 9733 c2bd 65b8 a43d
00000100: 35de 803d ad06 88bd 58e7 eabc ab39 b4bd
00000110: d8ce 28bc 60c3 083b c050 beba b3ca b5bd
00000120: 18f5 84bc 388d e9bc ce83 1f3d 9809 8bbd
00000130: 9798 c0bd ecf4 cbbc 38f1 97bd d825 dabc
00000140: 6303 c83d ca9b bdbd 1d04 ae3d ea11 6e3d
00000150: d806 eabc 6074 5f3b a8ed 333c b0ba 743c
00000160: 171b 5bbd 3e23 3e3d 63fc c53d 1878 27bc
00000170: 2c2a e0bc 009e 20bd ad67 7cbd c054 85bc
00000180: a31c 31bd 1e3e 583d 8327 a8bd e0e3 34bd
00000190: 3e43 323d b518 cbbd 0a6e 0cbd 68b5 8cbd
000001a0: d065 65bd bbb0 c63d 2a0b 18bd f82a 893c
000001b0: 8fb3 8b3d 7889 dcbc 9df7 82bd b557 99bd
000001c0: 80d9 b1bb 0030 4c39 c01f 183b b0ea 42bd
000001d0: 8c49 a73c 7ed5 91bd c088 923a 343a bc3c
000001e0: 70f0 693c 72e7 333d 5de2 9b3d 9bd0 913d
000001f0: 9a98 2a3d 1086 533c 41a2 9d3d ce8f 363d
00000200: 3563 c53d 7b06 c0bd 6cc2 ccbc aa6d 573d
00000210: 4077 ef3a e0da f4bc b028 c03b 4385 97bd
00000220: 36c0 8fbd cdce 50bd 68b9 7f3c c031 f3bc
00000230: 8059 873a 7ba5 893d e726 b03d 28f8 463c
00000240: ea08 283d fa63 583d 788b 90bc 5328 79bd
00000250: 1050 2d3c cd33 3cbd 9055 12bc f84b 913c
00000260: b05d c2bb c9c0 c33d c54d 85bd 7358 6bbd
00000270: 990c 973d 9799 a33d e472 03bd 10fb 0abc
00000280: 8271 613d e0bd c0bb 57d6 3fbd c702 cbbd
00000290: a7c2 b2bd 806e 7bbd 80fe b4bc f01f 4d3c
000002a0: b0c6 843b 3578 843d 5a2a cbbd 304f 543c
000002b0: 986e 86bd 74fb 983c 4dbb 63bd fd15 823d
000002c0: d0f8 dfbb 402f 29bc e0d2 883b 8cd4 da3c
000002d0: ab68 9dbd 7880 9fbc 10b1 5cbd 68ab 92bc
000002e0: a01a 8b3c aa3b 6dbd 94a8 dabc 139f a63d
000002f0: b172 c03d 3a77 c3bd 0c67 bd3c 54f5 8e3c
00000300: b315 1abd 6186 9c3d 95e6 bcbd adfc b1bd
00000310: 2cbe f23c 684d 29bc c9eb ac3d 504f acbd

fc3.bias f4 [2]
0.095308386 0.06853213
00000000: 0b31 c33d 935a 8c3d
