model_code/model/nn_model.pkl (torch_old, 56162 bytes, 6 tensors)

fc1.weight f4 [100, 34]
0	0x3e4672a8	0.19379675
1	0x3d67c3fc	0.05658339
2	0x3e4eb669	0.20186771
3	0xbc42f3e2	-0.0118989665
4	0x3e84fffa	0.25976545
5	0x3e30ee3b	0.17278378
6	0x3d9797a8	0.07401973
7	0xbd5e6ec1	-0.054304842
8	0x3dda75a7	0.10666972
9	0xbd6bfb8f	-0.05761295
10	0x3d8a616b	0.06756862
11	0x3e281a65	0.16416319
12	0xbd84fc08	-0.06493384
13	0x3e468ffe	0.19390866
14	0x3db2a0ef	0.08722102
15	0x3d955ad4	0.07292715
16	0x3e5b32e4	0.21406132
17	0x3e2cb417	0.16865574
18	0xbce0ce61	-0.02744216
19	0xbd7b4d51	-0.06135303
20	0x3da84242	0.08215763
21	0xbd0ffa24	-0.035150662
22	0x3b782ee7	0.0037869753
23	0x3e71bca3	0.23607115
24	0x3d88e71e	0.06684707
25	0x3e8271b5	0.25477377
26	0x3c1c0c8b	0.009524475
27	0x3e18f8b6	0.14938626
28	0x3dabea0f	0.083942525
29	0x3dbbf7ba	0.091781095
30	0xbd98650e	-0.0744115
31	0x3e37262c	0.17885655
32	0x3db8db5e	0.09026216
33	0xbcc0bd46	-0.023527753
34	0x3e09fbb7	0.13474928
35	0x39670ac9	0.00022033894
36	0xbe03a750	-0.12856793
37	0x3d294eda	0.041334964
38	0xbc87cd0c	-0.016577266
39	0xbc012493	-0.007882255
40	0x3d853899	0.06504936
41	0x3e7e4555	0.24831136
42	0xbd833541	-0.06406642
43	0x3e68b37d	0.2272472
44	0x3d37ba93	0.044855665
45	0x3df02bfa	0.11727138
46	0x3d91d22b	0.071201645
47	0x3e490a7b	0.19632904
48	0x3e4b3a3d	0.19846435
49	0x3c9bfad1	0.019040497
50	0xbd1e624c	-0.038667962
51	0x3e380481	0.17970468
52	0x3ca148b2	0.019687984
53	0x3e579d29	0.21056046
54	0x3da3c19c	0.079959124
55	0xbd964163	-0.0733669
56	0xbd5db6e0	-0.05412948
57	0x3e2425a2	0.16029981
58	0x3d7f29e6	0.062295817
59	0x3e27093b	0.16312115
60	0xbe948245	-0.29005638
61	0x3cd08b4b	0.025457045
62	0x3d3d8c46	0.046276353
63	0xbc17edea	-0.009273032
64	0x3e015050	0.12628293
65	0xbd2d3e19	-0.04229555
66	0xbd269c40	-0.040676355
67	0xbdaf6fcc	-0.085662454
68	0xbe1ed0bb	-0.15509312
69	0xbe33cac6	-0.1755782
70	0xbe0cd4e4	-0.13753086
71	0xbe79ecaa	-0.24406686
72	0xbde0b36e	-0.109717235
73	0x3ca76ff3	0.020439124
74	0xbe48b419	-0.19599952
75	0x3c849bc4	0.016187556
76	0xbce8a98c	-0.028401159
77	0x3cad50de	0.021156725
78	0xbe832e2e	-0.2562117
79	0xbe0ec817	-0.13943516
80	0x3d0ff5ff	0.03514671
81	0xbe482a5d	-0.1954741
82	0xbd11e214	-0.035615996
83	0xbe07b02f	-0.13250802
84	0xbc357872	-0.01107608
85	0x3de0a70b	0.10969361
86	0x3d12ea48	0.03586796
87	0xbe01889e	-0.12649772
88	0xbe4c8b44	-0.19975
89	0xbde91b0a	-0.113821104
90	0x3d494012	0.049133368
91	0xbe617fc2	-0.22021392
92	0x3d449069	0.047989283
93	0xbdd09687	-0.10184961
94	0xbe80ac90	-0.25131655
95	0x3cf561bf	0.029953836
96	0x3ce89acd	0.028394127
97	0x3da1c803	0.07899477
98	0xbe34aa2b	-0.17643039
99	0x3d2f7492	0.04283578
100	0xbe68ad2b	-0.22722308
101	0xbccfacd4	-0.025350966
102	0xbc348964	-0.011019085
103	0x3e618035	0.22021563
104	0x3e0e0071	0.13867356
105	0xbd4c25e8	-0.049840838
106	0x3e4d751f	0.2006421
107	0x3e493bfc	0.19651788
108	0x3d8cb441	0.06870318
109	0x3df9b6a9	0.12193043
110	0xbddc212c	-0.107485145
111	0x3da10043	0.07861378
112	0xbcf2ef33	-0.029655075
113	0x3e35be0a	0.17748275
114	0x3da8264e	0.08210431
115	0xbd407863	-0.04698981
116	0x3ddb56d5	0.10709921
117	0x3e306bbb	0.17228596
118	0x3cc2b2d1	0.023766907
119	0x3e0ae98e	0.13565657
120	0xbd4d495b	-0.050118785
121	0x3e2c78aa	0.16842905
122	0xbd48dc18	-0.049038023
123	0x3e7ab240	0.2448206
124	0x3e71cdca	0.23613659
125	0x3c0cb7d1	0.008588747
126	0x3e21dbb4	0.15806466
127	0x3e018a21	0.12650348
128	0x3e50e6c7	0.20400535
129	0x3e7be610	0.2459948
130	0x3db84f41	0.089994915
131	0x3e6680b6	0.22510037
132	0x3e78cff6	0.24298081
133	0x3ce8fe4b	0.028441569
134	0xbd34fef5	-0.04418846
135	0x3d724ba7	0.05915418
136	0x3dd6eebe	0.10494755
137	0x3ccc2ceb	0.024923762
138	0x3dbe66cc	0.09296951
139	0x3dba091d	0.090837695
140	0x3e696202	0.22791293
141	0x3d269e9d	0.04067861
142	0x3e41d6df	0.18929623
143	0x3d5ebb9c	0.054378137
144	0x3dc1f388	0.09470278
145	0x3c0d226d	0.008614165
146	0x3db4d899	0.08830375
147	0xbd802afd	-0.06258199
148	0x3e7bffc5	0.24609287
149	0x3e4c3fda	0.19946232
150	0xbcd1563f	-0.02555382
151	0x3df9316f	0.12167632
152	0x3d098a3e	0.033579104
153	0x3e2f340b	0.17109697
154	0xbd4b3954	-0.04961522
155	0xbd9b078a	-0.07569797
156	0xbd1f8cb1	-0.038952533
157	0x3e389575	0.18025763
158	0xbae1a05b	-0.0017213927
159	0xbc218d0d	-0.009860289
160	0xbd788e9d	-0.06068288
161	0x3e2df257	0.16986977
162	0x3d824f68	0.06362802
163	0x3d1496bc	0.036276564
164	0x3cdfc4b4	0.027315475
165	0x3c8b25c2	0.016985778
166	0x3d872e32	0.06600608
167	0xbd58a84e	-0.052894883
168	0x3d9e2fe5	0.07723979
169	0x3e41a759	0.18911494
170	0x3ce7adf7	0.028281195
171	0xbe59c69b	-0.21267168
172	0x3cb5b353	0.022180235
173	0x3c59f6db	0.013303484
174	0x3d3a93ae	0.045550995
175	0xbe5206f9	-0.20510472
176	0x3c5b0ef3	0.013370263
177	0x3d6a3efd	0.057188977
178	0xbdf0a548	-0.11750275
179	0xbe55f615	-0.20894654
180	0xbe511afd	-0.20420451
181	0xbdb3938f	-0.08768379
182	0xbe89c59c	-0.26908576
183	0xbe38caa2	-0.18046048
184	0x3ca84c1e	0.020544108
185	0xbdd9a4b3	-0.10627117
186	0xbe3a85a7	-0.18215047
187	0xbde6358d	-0.11240683
188	0x3cd0e502	0.025499824
189	0x3d6b8253	0.057497334
190	0xbe03fa9b	-0.12888567
191	0x3d2109cc	0.039315984
192	0xbe6343da	-0.22193852
193	0xbca03f61	-0.019561471
194	0x3bfdebbb	0.0077490485
195	0xbd453419	-0.048145387
196	0x3d7c99b8	0.061670035
197	0xbe3b2cd9	-0.18278827
198	0xbcd58aed	-0.026067222
199	0xbe0bd93a	-0.13657084
200	0xbc8c5eba	-0.017135013
201	0xbe15ce37	-0.14629446
202	0x3d96d28d	0.07364378
203	0xbe056f45	-0.13030727
204	0x3cd0b550	0.025477082
205	0xbd090bd0	-0.03345853
206	0xbe0b050c	-0.13576144
207	0x3d1cb9c0	0.038263083
208	0xbda8d348	-0.08243424
209	0xbbc373a0	-0.0059647113
210	0x3d90e510	0.0707494
211	0xbdde1668	-0.108441174
212	0xbd87549a	-0.06607933
213	0xbdb80f9f	-0.089873545
214	0xbe15cb15	-0.14628251
215	0xbd7f39c4	-0.06231095
216	0xbcc23e38	-0.023711309
217	0x3d8fd61e	0.070232615
218	0xbde19b89	-0.11015994
219	0xbd106ca0	-0.035259843
220	0x3d821bee	0.063529834
221	0x3d556d84	0.052106395
222	0xbe08f8d3	-0.13376169
223	0xbdce946b	-0.10086902
224	0xbe07a306	-0.13245782
225	0x3cfda9b8	0.030964717
226	0xbe2d725f	-0.1693816
227	0x3ca59e78	0.020217165
228	0xbdaf81b7	-0.08569663
229	0xbdea829f	-0.11450695
230	0x3d53e170	0.051728666
231	0x3d16d260	0.036821723
232	0xbdd235bc	-0.10264155
233	0x3db2cc8e	0.08730422
234	0xbe26db81	-0.16294672
235	0xbbd742a0	-0.0065692216
236	0x3d853708	0.06504637
237	0xbd93413b	-0.07190176
238	0x3d7dbac8	0.061945707
239	0xbe1cca72	-0.15311602
240	0x3db10d9a	0.086451724
241	0xbcb385a0	-0.021914303
242	0xbcb72a80	-0.022359133
243	0xbdcfd76d	-0.10148511
244	0xbe12b307	-0.14326106
245	0xbe090a10	-0.13382745
246	0xbbdede60	-0.0068014115
247	0xbcf09bd0	-0.029371172
248	0xbe1638f7	-0.14670168
249	0xbe155e58	-0.1458677
250	0x3da68346	0.08130507
251	0xbe00abdb	-0.12565558
252	0xbda8ab61	-0.08235813
253	0xbd9bed50	-0.07613623
254	0xbd1bc5e8	-0.038030535
255	0xbda2f226	-0.079563424

fc1.bias f4 [100]
0	0xbda13801	-0.0787201
1	0x3e38f5cb	0.18062513
2	0xbe73796a	-0.23776785
3	0x3df503c0	0.11963606
4	0x3e51a8b2	0.20474508
5	0xbe43ad8a	-0.19109169
6	0xbdfae4c8	-0.12250668
7	0xbe10b5f7	-0.14131914
8	0xbe25ba6f	-0.161844
9	0x3de9d722	0.114179865
10	0xbe7f6019	-0.24939002
11	0x3dcdd3ed	0.10050187
12	0xbe56777d	-0.20944019
13	0x3be66ae0	0.0070317835
14	0x3de7ea7e	0.11324023
15	0x3d340a8b	0.043955367
16	0xbe385fb4	-0.18005258
17	0xbd064b5b	-0.03278671
18	0x3cd31805	0.02576829
19	0xbe73bf70	-0.23803496
20	0x3e29d5d7	0.1658548
21	0xbeaa1429	-0.33218506
22	0x3de444dd	0.11145947
23	0xbeb31945	-0.34980217
24	0xbd7b5c28	-0.061367184
25	0x3d1c129a	0.038103677
26	0x3de6fce1	0.112787016
27	0x3e4d64c4	0.2005797
28	0x3d6eee45	0.0583327
29	0x3df59a01	0.119922645
30	0xbe4bbde9	-0.19896664
31	0xbea98ca0	-0.331151
32	0xbf34cb2b	-0.7062251
33	0xbdc59ddf	-0.09649252
34	0xbd3c95b2	-0.046041198
35	0x3e690f89	0.22759832
36	0xbec8c12d	-0.3920988
37	0x3e307f07	0.17235957
38	0xbdc52c4c	-0.096275896
39	0x3aec82c6	0.0018044345
40	0x3e026dc6	0.12737188
41	0x3e5c7026	0.21527156
42	0xbc3e891e	-0.011629371
43	0xbe608367	-0.21925126
44	0x3e168d3d	0.14702316
45	0x3d85d960	0.065356016
46	0xbe1f17e5	-0.15536459
47	0x3df47233	0.11935844
48	0x3e25f7f9	0.16207875
49	0x3d193f54	0.03741391
50	0xbd8c4e91	-0.06850923
51	0x3e690f58	0.2275976
52	0x3e5e826b	0.21729438
53	0xbe45a87c	-0.19302553
54	0xbed38a33	-0.41316375
55	0x3d0b2b0e	0.033976607
56	0x3da78406	0.08179478
57	0x3e7e1f77	0.2481669
58	0x3e97f4dd	0.29679003
59	0xbe1832ee	-0.14863178
60	0x3d903f19	0.07043285
61	0xbdd44a6d	-0.10365758
62	0xbde1034d	-0.10986958
63	0x3c0bfacb	0.00854368
64	0xbde0f5d5	-0.10984389
65	0x3dab21f6	0.08356087
66	0xbc401832	-0.011724519
67	0x3e38cb12	0.18046215
68	0xbb7b2a5f	-0.0038324816
69	0x3d9b4790	0.07582009
70	0xbe555b7a	-0.20835677
71	0xbcaf437e	-0.021394487
72	0x3e7bc729	0.24587692
73	0x3e582d04	0.21110922
74	0x3bf48f20	0.007463351
75	0x3d46b2d6	0.048510395
76	0x3e188b5a	0.14896908
77	0x3f0a55c6	0.5403713
78	0x3e31f902	0.17380145
79	0x3d7e0c34	0.062023357
80	0x3dbb5b67	0.09148293
81	0x3d5eacc0	0.054363966
82	0xbdc74d2c	-0.09731516
83	0x3e698916	0.228062
84	0x3e20a5c9	0.15688242
85	0xbe19a38e	-0.15003797
86	0xbe3f796b	-0.18698661
87	0x3d460850	0.04834777
88	0x3de1924c	0.11014232
89	0xbd922170	-0.07135284
90	0x3da07a96	0.078358814
91	0xbe6b880f	-0.23001121
92	0x3d8e3f6d	0.06945691
93	0x3d9755d5	0.07389418
94	0x3f266546	0.6499828
95	0x3ce43898	0.027859017
96	0x3ed9d039	0.42541674
97	0xbe79af6e	-0.24383327
98	0x3ced5c09	0.02897455
99	0x3b4b99ee	0.003106709

fc2.weight f4 [100, 100]
0	0x3d94a57e	0.07258128
1	0xbc29f992	-0.010374444
2	0xbd7dacee	-0.061932497
3	0x3e34bbad	0.17649718
4	0x3e0b3178	0.1359309
5	0x3c91b960	0.017788589
6	0xbdfc5ccc	-0.12322387
7	0xbe570472	-0.2099779
8	0xbf2b2c19	-0.6686416
9	0x3f6e8d40	0.9318428
10	0x3c700542	0.014649691
11	0x3d996fdc	0.074920386
12	0x3fd36fd9	1.6518508
13	0x3dbec422	0.09314753
14	0xbc581181	-0.013187767
15	0x3e37e289	0.1795751
16	0xbdff5606	-0.124675795
17	0x3c8e11ee	0.017342534
18	0x3e31c455	0.17360051
19	0xbdbea1f4	-0.09308234
20	0x3e2b2067	0.1671158
21	0x3e858e5f	0.26085183
22	0x3c71fab1	0.014769242
23	0xbf3ad37f	-0.7297897
24	0x3f9a71be	1.2065961
25	0x3ca495c6	0.020090949
26	0xbdbdf9fc	-0.09276196
27	0x3dffe674	0.12495127
28	0xbd24166c	-0.040060446
29	0x3c7a2566	0.015267706
30	0xbe19dda3	-0.15025954
31	0x3f098d42	0.5373117
32	0xbf8bd3b9	-1.0923988
33	0xbdfe97cd	-0.124312975
34	0x3e45e65e	0.1932616
35	0x3e005108	0.12530911
36	0x3fd7b14c	1.6850982
37	0xbd87e19a	-0.06634827
38	0x3d36dba9	0.044643078
39	0x3e270625	0.16310938
40	0x3f2c8da8	0.6740365
41	0x3df9e5cc	0.122020334
42	0xbe8a0151	-0.2695413
43	0xbdb5f964	-0.08885458
44	0x3d9d537e	0.076819405
45	0x3d580882	0.05274249
46	0xbd9f9f4b	-0.077940546
47	0x3c84f25f	0.016228853
48	0x3efb91dd	0.49134722
49	0x3ee5afca	0.4486068
50	0x3f15ecfc	0.58564734
51	0x3e2f9b60	0.17149115
52	0x3da79048	0.08181816
53	0xbd9efa98	-0.07762641
54	0xbfa5b9fb	-1.2947382
55	0xbf79cc21	-0.975771
56	0x3ced5e04	0.028975494
57	0x402eaa1c	2.7291327
58	0x3ecf4d2c	0.40488565
59	0xbdb2ca21	-0.08729959
60	0x3d7938c0	0.060845137
61	0xbd973b4b	-0.07384356
62	0xbeb736b7	-0.35783932
63	0x3e1d288d	0.153475
64	0x3e07ee1b	0.13274424
65	0xbf7d91fd	-0.99050885
66	0xbdbb81ab	-0.091555916
67	0xbd0c9d84	-0.034329906
68	0x3d1b73a1	0.03795207
69	0x3f206d78	0.62667036
70	0xbe088a67	-0.13334046
71	0xbd1a7543	-0.037709486
72	0x3cf5cefb	0.030005923
73	0x3e2a1530	0.16609645
74	0xbf2a1813	-0.66442984
75	0x3db6b920	0.089220285
76	0x3e1c876e	0.15286037
77	0x3f807a60	1.0037346
78	0x3e179d56	0.14806113
79	0x3ddf4e1c	0.1090357
80	0x3cd6065b	0.026126077
81	0xbe01fb54	-0.1269353
82	0xbe250c77	-0.16118036
83	0x3e0e48d8	0.13894975
84	0x3d2f7c70	0.042843282
85	0xbf11339e	-0.56719387
86	0xbe304df5	-0.17217238
87	0xbd362106	-0.044465087
88	0x3e0a442b	0.13502567
89	0x3e8cdf21	0.27513984
90	0x3f17540b	0.59112614
91	0xbde9cf9d	-0.11416552
92	0xbd90ac99	-0.070641704
93	0xbfa0d628	-1.2565355
94	0x3fe7cda4	1.8109632
95	0x3f3bbc46	0.7333416
96	0xbfeb965c	-1.8405261
97	0xbd85ae3c	-0.06527373
98	0x3dd7f6c7	0.10545116
99	0x3dd03fc7	0.101684146
100	0x3c85a177	0.016312344
101	0x3ce6d0c2	0.028175715
102	0xbc2ddb7a	-0.010611409
103	0x3df8a98c	0.121417135
104	0xbdecd230	-0.115635276
105	0x3cace75e	0.021106418
106	0xbd4c3ca6	-0.049862526
107	0xbe2abeaf	-0.16674303
108	0x3e88aad0	0.2669282
109	0xbf317ed0	-0.69334126
110	0x3ce07c46	0.027403008
111	0x3e0437da	0.1291193
112	0xbf88162b	-1.0631765
113	0x3e4021f7	0.18762957
114	0xbe1dbf71	-0.1540506
115	0x3dc394d4	0.09549871
116	0xbe0de97f	-0.13858603
117	0x3e2908fb	0.16507332
118	0x3da36c57	0.079796486
119	0xbdd64df1	-0.10464085
120	0x3c9b09ad	0.018925512
121	0xbe410035	-0.18847735
122	0x3e588905	0.21146019
123	0x3e9b12bd	0.30287734
124	0x3d84121c	0.064487666
125	0x3e344777	0.17605387
126	0xbd9952f4	-0.07486525
127	0x3def6fc9	0.11691243
128	0xbdc074b4	-0.09397259
129	0x3deb3d3a	0.114862874
130	0xbe4323e3	-0.19056658
131	0xbd84b1a6	-0.06479196
132	0x3f12898a	0.5724112
133	0xbe3b1381	-0.18269159
134	0x3dce4e5a	0.10073538
135	0x3d945f17	0.072446994
136	0xbfab91a4	-1.3403821
137	0xbcf1029c	-0.02942019
138	0x3e289cf7	0.16466127
139	0x3dbd1783	0.09233
140	0xbd1b6803	-0.03794099
141	0xbea44608	-0.3208468
142	0xbda952ee	-0.08267771
143	0xbdc8f9f3	-0.09813299
144	0x3de7a36f	0.11310469
145	0x3e31ed5a	0.17375699
146	0xbe112446	-0.14173993
147	0x3e3ae563	0.18251567
148	0xbec67770	-0.38763
149	0xbe940606	-0.28910846
150	0xbe4699b6	-0.19394574
151	0x3e3fa49d	0.18715139
152	0x3ded2feb	0.11581405
153	0xbdebc514	-0.11512199
154	0x3f469178	0.7756572
155	0x3f6f5f30	0.9350462
156	0xbba5ec76	-0.0050635887
157	0xbfb49694	-1.4108453
158	0xbe318e7c	-0.1733951
159	0xbde5684c	-0.11201534
160	0x3decfcca	0.11571653
161	0xbe247d0c	-0.16063327
162	0x3f01ee9c	0.50754714
163	0x3e50212a	0.20325151
164	0x3c02e4cb	0.007989119
165	0x3f06d754	0.52672315
166	0xbdefe756	-0.11714046
167	0x3dfe88d7	0.12428444
168	0x3e2a3bc9	0.16624369
169	0xbe99bde4	-0.30027688
170	0xbdef8cab	-0.11696752
171	0xbddf64c5	-0.10907892
172	0x3e28b07a	0.1647357
173	0x3e30b6ae	0.17257187
174	0x3e7027cf	0.23452686
175	0xbbd33e54	-0.006446639
176	0x3dca6490	0.09882462
177	0xbf4ab0f4	-0.7917626
178	0x3e394234	0.1809166
179	0x3cccb19a	0.02498703
180	0x3e5225b0	0.20522189
181	0xbe13281a	-0.14370766
182	0xbe3b5b93	-0.18296652
183	0x3deb7938	0.1149773
184	0x3e000be2	0.12504533
185	0x3e4c28f7	0.19937502
186	0x3df1ec0f	0.11812603
187	0xbe2ce781	-0.16885187
188	0x3de5c38d	0.11218939
189	0x3b49b5a0	0.0030778423
190	0xbec2bd96	-0.38035268
191	0xbe35bee2	-0.17748597
192	0xbdae8f3f	-0.08523416
193	0x3fa69dc2	1.3016894
194	0xbfc88e6c	-1.5668464
195	0xbebea5c2	-0.37235838
196	0x3fbebda4	1.4901624
197	0xbce658d3	-0.028118527
198	0x3dfba3c0	0.12287092
199	0x3dd5de96	0.104428455
200	0xbe3a9787	-0.18221866
201	0x3c65cbd5	0.014025648
202	0x3dc572ba	0.09641023
203	0xbe28d3dd	-0.1648707
204	0x3d68f376	0.056872807
205	0xbd0ba02e	-0.034088306
206	0x3e71fb57	0.23631035
207	0x3e2df43a	0.16987696
208	0x3d7b98a0	0.06142485
209	0x3de0ee71	0.10982979
210	0xbbb7b3f1	-0.0056061675
211	0xbe6a280b	-0.22866838
212	0x3e13e1c1	0.14441587
213	0xbd813e69	-0.06310732
214	0x3e76e831	0.24112011
215	0xbd7d49fb	-0.06183813
216	0x3dda4510	0.10657704
217	0xbddf50d6	-0.1090409
218	0xbe05a808	-0.1305238
219	0x3d8411a6	0.06448679
220	0xbd44cddb	-0.04804788
221	0x3e6cdc3c	0.23130888
222	0xbe3e7a30	-0.18601298
223	0x3d64c622	0.055853017
224	0x3e1aa8f5	0.15103514
225	0xbe1acb37	-0.15116583
226	0x3db04e54	0.0860869
227	0xbdaf946c	-0.08573231
228	0xbd109653	-0.03529961
229	0xbda4b4d1	-0.080423005
230	0x3e1e8310	0.15479684
231	0xbd9b65b1	-0.075877555
232	0x3c8e16dd	0.017344886
233	0x3daa8d9d	0.08327792
234	0xbdd49d9e	-0.103816256
235	0xbdef5ce2	-0.11687638
236	0x3e3d7d07	0.18504725
237	0xbc6e0a0b	-0.014528762
238	0xbda11e28	-0.0786708
239	0xbe4035de	-0.18770549
240	0xbbf1308e	-0.0073605245
241	0x3e103824	0.14083916
242	0x3de204bb	0.110360585
243	0x3dd2c379	0.1029119
244	0xbe0446b3	-0.12917595
245	0xbe22a1bd	-0.15882011
246	0x3dfa8829	0.12233002
247	0xbe7302a6	-0.23731479
248	0xbdc39328	-0.09549552
249	0xbd9665e5	-0.073436536
250	0xbdc826e1	-0.097730406
251	0xbe4d8164	-0.2006889
252	0xbe5f4cde	-0.21806666
253	0x3d9fb28b	0.07797726
254	0xbe1fcbe4	-0.15605122
255	0xbe10a980	-0.14127159

fc2.bias f4 [100]
0	0x3e2c931f	0.16852997
1	0x3d3427eb	0.04398338
2	0xbe18c0ef	-0.14917348
3	0xbe38bdcd	-0.18041153
4	0xbe28be31	-0.16478802
5	0xbd4fe9f6	-0.050760232
6	0xbe079474	-0.13240224
7	0xbd6f7568	-0.058461577
8	0xbe2e151f	-0.17000245
9	0xbe2c3132	-0.16815642
10	0xbe264291	-0.1623633
11	0xbe12f3e6	-0.14350852
12	0xbe310d66	-0.17290267
13	0xbe27343e	-0.16328523
14	0xbd70216f	-0.058625635
15	0xbe49e093	-0.19714575
16	0xbe3604b0	-0.17775226
17	0xbdb7671d	-0.08955214
18	0xbe13b5d1	-0.14424826
19	0xbd92868a	-0.071545675
20	0xbd2c1306	-0.04201033
21	0xbe7113fe	-0.23542783
22	0xbe712857	-0.23550545
23	0xbe642a91	-0.22281863
24	0xbe0136ea	-0.12618604
25	0xbd3c35e2	-0.045949824
26	0xbe2a65c0	-0.16640377
27	0xbdce5dd9	-0.10076494
28	0xbd57dcc9	-0.05270079
29	0xbe2e1554	-0.17000324
30	0xbdc85c3e	-0.09783219
31	0xbe723183	-0.236517
32	0xbe131ecf	-0.14367221
33	0xbe602910	-0.21890664
34	0xbde982f3	-0.1140193
35	0xbd573312	-0.05253894
36	0xbd87be65	-0.06628112
37	0xbdf63308	-0.12021452
38	0xbd6fc256	-0.058534943
39	0xbe02a4ad	-0.12758131
40	0xbdc7e2ad	-0.09760032
41	0xbdc7b543	-0.0975137
42	0xbe25dacd	-0.16196747
43	0xbe41a9ee	-0.1891248
44	0xbe60ca87	-0.21952258
45	0xbe33beab	-0.17553203
46	0xbe17db97	-0.1482986
47	0xbd839ffa	-0.064269975
48	0xbe360a10	-0.17777276
49	0xbd96089c	-0.07325861
50	0xbe07ac42	-0.13249305
51	0xbe52fa83	-0.20603375
52	0xbe50bbcf	-0.20384143
53	0xbd9a4bca	-0.07533987
54	0xbe3f2906	-0.18667993
55	0xbe314b71	-0.17313935
56	0xbe59ef9d	-0.21282811
57	0xbd9a6263	-0.07538297
58	0xbe66ee63	-0.22551875
59	0xbe39b099	-0.18133773
60	0xbe4c0347	-0.19923125
61	0xbe484aa2	-0.1955972
62	0xbdb47454	-0.0881125
63	0xbe6475a5	-0.22310503
64	0xbdf7f812	-0.121078625
65	0xbe5188ac	-0.20462292
66	0xbe2c374e	-0.16817972
67	0xbe3aad8e	-0.18230268
68	0xbe006806	-0.12539682
69	0xbe5d0836	-0.21585163
70	0xbe573da8	-0.21019614
71	0xbdea0799	-0.114272304
72	0xbe10d06c	-0.14142007
73	0xbda68484	-0.08130744
74	0xbd8b186a	-0.06791766
75	0xbe6a61aa	-0.22888818
76	0xbe5c7e9e	-0.21532676
77	0xbe4c2068	-0.19934237
78	0xbda723e4	-0.081611425
79	0xbdb25032	-0.08706702
80	0xbe19ec0a	-0.15031448
81	0xbe5d1933	-0.21591644
82	0xbd39c26f	-0.045351442
83	0xbe1361f5	-0.14392836
84	0xbe4dd54a	-0.20100895
85	0xbe2d0949	-0.16898073
86	0xbe1213a2	-0.14265302
87	0xbe04e6ef	-0.12978719
88	0xbe32045f	-0.1738448
89	0xbe34844a	-0.1762859
90	0xbdc6a1ec	-0.09698853
91	0xbd64c849	-0.05585507
92	0xbd923e17	-0.07140749
93	0xbe708459	-0.23487987
94	0xbdedc271	-0.116093524
95	0xbe41a3f7	-0.18910204
96	0xbe3d6589	-0.18495764
97	0xbd4b5d66	-0.04964962
98	0xbd4af900	-0.04955387
99	0xbe247e9f	-0.16063927

fc3.weight f4 [2, 100]
0	0xbdc2fbeb	-0.09520706
1	0xbb136200	-0.0022488832
2	0xbdc5803a	-0.09643598
3	0xbc2a0028	-0.010376014
4	0x3dab09ef	0.08351504
5	0x3d9a5ad9	0.07536859
6	0x3d5791e6	0.052629374
7	0xbd36da63	-0.044641864
8	0x3d87426d	0.066044666
9	0x3cbb1e74	0.02284167
10	0xbd1d2d4a	-0.03837327
11	0x3d03c002	0.032165535
12	0xbd9bb648	-0.07603127
13	0x3d33074e	0.04370814
14	0x3db92e79	0.09042067
15	0xbd48b587	-0.049001243
16	0x3dc51009	0.09622199
17	0xbdb790a5	-0.08963136
18	0x3d4e7b32	0.050410457
19	0x392afc00	0.0001630634
20	0xbdb096b7	-0.086224966
21	0xbd9b2666	-0.07575683
22	0x3db33a87	0.087513976
23	0xbda79340	-0.081823826
24	0xbcc719c0	-0.02430427
25	0xbdae9395	-0.08524243
26	0x3d9372a1	0.07199598
27	0x3d351982	0.04421378
28	0xbd3ecdad	-0.046582866
29	0x3d9c7a6b	0.07640537
30	0xbda73e4e	-0.081661806
31	0x3dbe075f	0.0927875
32	0x3c88ef78	0.01671575
33	0xbdc8e780	-0.0980978
34	0x3cd4ab14	0.025960483
35	0xbd138a2a	-0.036020435
36	0xbc9fe758	-0.019519493
37	0xbb7caec0	-0.0038556308
38	0xbc050200	-0.008118153
39	0xbcc01d2c	-0.02345141
40	0x3d988037	0.0744633
41	0x3cd26dfc	0.02568721
42	0xbd95a8a0	-0.07307553
43	0xbd1feba7	-0.039043095
44	0x3d32ade6	0.043622874
45	0xbc8f9ce0	-0.017530859
46	0x3dc9e29b	0.09857675
47	0xbd19b6fd	-0.037528027
48	0x3ca6c5ec	0.020358048
49	0x3d4619e2	0.048364528
50	0xbca41214	-0.020028152
51	0xbdafe9bb	-0.085895024
52	0x3db48383	0.08814146
53	0x3d405d0a	0.04696373
54	0xbd890958	-0.06691235
55	0x3d6bc0d2	0.057556935
56	0xbd3698ad	-0.044579197
57	0x3cb80558	0.022463486
58	0xbd831595	-0.06400601
59	0xbcc1862c	-0.023623548
60	0x3d9f7379	0.077856965
61	0xbc9b3d74	-0.018950202
62	0xbcc953c8	-0.024576083
63	0xbd2075f7	-0.039175
64	0x3cb4c174	0.022064902
65	0xbdacb803	-0.08433535
66	0x3d162886	0.03665974
67	0xbc183eb0	-0.00929229
68	0x3d9679d3	0.07347455
69	0x3c91c558	0.017794296
70	0x3a95ea00	0.0011437535
71	0x3d83148b	0.06400403
72	0xbbfbb350	-0.007681288
73	0xbcb2c2e8	-0.021821454
74	0x3d04481e	0.03229534
75	0xbd22f920	-0.039788365
76	0xbd94baed	-0.07262216
77	0xbcdded08	-0.027090564
78	0xbd81d674	-0.06339732
79	0x3d94c901	0.07264901
80	0x3d2cc1c2	0.04217697
81	0x3bac9cd0	0.005267717
82	0xbd973cee	-0.07384668
83	0xbdcb58ea	-0.099290684
84	0xbd1a53f3	-0.037677716
85	0x3d1d186a	0.03835336
86	0xbd92a02e	-0.07159458
87	0x3d9cbb27	0.07652884
88	0x3dac327d	0.084080674
89	0xbcda8ca0	-0.026678383
90	0xbd4d756a	-0.050160803
91	0x3c7dc618	0.015489124
92	0xbd912e58	-0.070889175
93	0xbcf81c78	-0.030287012
94	0xbcbbaacc	-0.02290859
95	0xbda2e69b	-0.07954141
96	0xbd4a693d	-0.04941677
97	0x3d02cb02	0.031931885
98	0x3d82903f	0.06375169
99	0x3d87f921	0.066393144
100	0x3db6d115	0.08926598
101	0xbd19ccaa	-0.0375487
102	0x3d7de81e	0.061988942
103	0x3d9e07f1	0.077163585
104	0x3da08fcf	0.07839929
105	0x3bb8f630	0.005644582
106	0x3d81c51b	0.06336423
107	0x3cd25c3c	0.025678746
108	0x3c027568	0.007962562
109	0xbd822108	-0.063539565
110	0x3dae0c6d	0.08498464
111	0xbc9b5dd8	-0.018965647
112	0x3d622dee	0.055219583
113	0xbb863b20	-0.0040964037
114	0xbdbe9c73	-0.09307184
115	0xbdabbbe6	-0.08385448
116	0xbc7ff870	-0.015623197
117	0xbd05b250	-0.032640755
118	0xbd39071d	-0.0451728
119	0xbb931c00	-0.004489422
120	0x3d9b2f25	0.075773515
121	0xbd8690e5	-0.06570605
122	0x3d9002c5	0.07031778
123	0x3d870623	0.06592967
124	0x3d396bca	0.04526881
125	0xbdac02f8	-0.08399004
126	0xbcdaf0cc	-0.026726149
127	0x3b8d8a50	0.0043194667
128	0x3da94e01	0.08266831
129	0xbdb9c6a0	-0.09071088
130	0xbc81f754	-0.015865006
131	0xbd61fb70	-0.05517143
132	0x3d0d84ba	0.034550406
133	0xbcbf3920	-0.023342669
134	0xbd0d1f2c	-0.034453556
135	0x3d0a6a06	0.033792518
136	0xbcdbecb4	-0.026846267
137	0xbda81ab5	-0.08208219
138	0x3d55c0c2	0.05218578
139	0xbd74ad87	-0.0597358
140	0x3dc3921b	0.09549352
141	0x3dca0449	0.098640986
142	0x3cf8d9a4	0.030377217
143	0xbcf1d20c	-0.029519103
144	0x3c83d6cc	0.016093634
145	0x3dc5d959	0.096605964
146	0xbda64983	-0.0811949
147	0x3dae550f	0.085123174
148	0x3c765958	0.01503595
149	0x3dbedd47	0.09319549
150	0xbdb61ebf	-0.08892583
151	0xbd022040	-0.031769037
152	0xbd772b1a	-0.06034384
153	0xbdad6b72	-0.08467759
154	0x3db95fbb	0.09051462
155	0x3d51d952	0.051232643
156	0xbbb92b30	-0.0056509003
157	0xbc444800	-0.011980057
158	0x3d684046	0.05670192
159	0x3b5bd940	0.003354624
160	0xbdc083d7	-0.094001465
161	0xbdb73258	-0.08945149
162	0xbd00a1fc	-0.03140448
163	0xbd92bbca	-0.07164724
164	0x3c658db0	0.014010832
165	0xbc4ad430	-0.012379691
166	0x3d4de472	0.05026669
167	0x3d8c4775	0.06849567
168	0xbdb00050	-0.085938096
169	0xbd89b014	-0.06723037
170	0xbb9600a0	-0.004577711
171	0xbda69b9d	-0.0813515
172	0xbd0e1bb4	-0.03469439
173	0x3d598302	0.053103454
174	0xbd71459d	-0.05890428
175	0xbd60379d	-0.054740537
176	0x3da6a899	0.08137626
177	0xbccad1f8	-0.024758324
178	0xbd434653	-0.04767449
179	0x3dabc0c1	0.08386374
180	0xbc7efc28	-0.015563048
181	0x3cb65f94	0.022262372
182	0xbd3ca1f3	-0.046052884
183	0xbdb8fc1d	-0.09032462
184	0xbd8a6f14	-0.06759468
185	0x3d835409	0.06412513
186	0xbd7d3320	-0.061816335
187	0x3d3bdb6a	0.045863546
188	0x3d5baffa	0.05363462
189	0x3bb20cd0	0.0054336563
190	0xbd3aa21d	-0.04556476
191	0xbdb2da17	-0.087330036
192	0xbdc1cb75	-0.094626345
193	0xbd3f9967	-0.046777155
194	0x3d9ae5e3	0.07563379
195	0xbd8aebae	-0.067832336
196	0xbd8043d0	-0.06262934
197	0x3d5d4f42	0.054030664
198	0x3c96c478	0.01840423
199	0x3d0aed82	0.03391791

fc3.bias f4 [2]
0	0x3d66a6a6	0.056311272
1	0xbd4e1be7	-0.05031958
