Modules/nn_model.pkl (torch_old, 15583 bytes, 4 tensors)

fc1.weight f4 [100, 34]
0.036246475 0.18265155 -0.09631464 0.17700876 0.14377631 0.15769565 0.1419832 -0.006075993
0.08528311 0.031332962 0.0114170695 -0.065587446 0.011142035 0.10238157 0.2201419 0.18329614
0.011752893 -0.06793941 -0.032261573 0.16301958 0.10275312 0.055437513 -0.00433612 0.18144016
0.0903781 0.07833673 0.023463275 0.068823956 -0.05326233 0.077298015 -0.061728615 0.019422859
0.099827506 0.029699355 0.0008943528 -0.06863355 -0.03271705 -0.017634928 -0.12759787 0.05273749
0.00062800944 0.07235086 -0.047596976 0.16899948 -0.121564016 -0.071750805 0.09363507 -0.092625484
0.06391168 -0.14727391 0.115132555 0.08333801 -0.15228832 -0.15284029 -0.103033185 -0.06544288
0.08961524 -0.055015653 0.052477956 0.041474313 -0.049616024 -0.15487674 -0.04218103 -0.0384416
-0.12060021 0.046937138 0.013404399 -0.15276496 0.031753298 0.045313045 -0.20444529 0.1285017
-0.017015621 -0.10407683 0.09766972 0.120456785 0.0881804 -0.03887098 -0.01061067 -0.1199606
-0.049063154 -0.061228823 0.078802615 -0.19451584 0.06332074 0.07810775 -0.0841875 -0.10040426
-0.168123 0.036957346 0.0089189205 -0.059396345 0.028853297 -0.17621951 -0.20437075 -0.1811685
-0.08891432 -0.20923968 -0.13932857 -0.17862462 -0.22982273 -0.10426109 -0.14613058 0.17831959
0.39612085 -0.18381794 -0.17474976 -0.06464582 0.123655625 0.0803931 0.25483975 -0.124095455
-0.08349607 -0.32937607 -0.2020973 -0.17532535 -0.0054218057 0.08868346 0.011979391 0.04875906
-0.24369003 0.023900352 0.19894165 -0.08108309 0.17066139 0.19908363 -0.26034617 -0.18564723
-0.028712686 -0.16433997 -0.13913557 -0.29574224 -0.16163145 -0.04459022 -0.21517898 0.14588992
-0.06419321 0.06199307 -0.13929603 -0.09195945 -0.21317507 -0.23114589 0.13516644 -0.013886502
-0.041339807 -0.054668296 -0.07049104 0.09079786 0.14727055 0.28020692 0.39013922 0.21212523
0.08673648 0.0845897 -0.16829292 0.107887894 0.031648587 0.025519064 0.026066614 0.0006150062
-0.21867462 -0.22881486 -0.0672158 -0.19695961 0.10842325 0.02677126 0.05022853 -0.03468072
0.21153146 0.06338732 -0.023850132 -0.11843259 0.02089797 0.062272057 -0.13343589 0.008691446
-0.065485224 0.083464034 -0.14964624 -0.07234034 -0.20762359 -0.108038545 0.043947086 -0.1175494
0.23022206 -0.1261167 -0.19704619 -0.17276244 -0.026871717 -0.09573078 -0.068139754 -0.23734005
-0.21645662 0.037659377 -0.15770528 0.08244433 -0.10526438 0.0929875 -0.14884456 -0.10199981
-0.094381995 -0.08405241 0.034602314 -0.23322964 -0.026257023 0.049680207 -0.21598986 0.06310263
-0.15662931 0.024280744 0.014817316 -0.08268657 -0.116689 0.17184958 -0.055815503 -0.08534082
-0.13044067 -0.010990497 0.0752545 -0.011126849 -0.13759412 -0.11105264 -0.011017565 0.07978658
0.21495852 0.010929607 -0.08936451 0.003828068 -0.002087955 -0.022700835 -0.1299258 0.061486233
0.14206336 0.041501563 -0.040996738 -0.138032 -0.0024173239 0.036344517 0.07215149 -0.077865325
0.1286963 -0.071679026 0.22137013 -0.035024237 0.03769156 0.037479755 0.08560923 -0.008140039
0.10829141 -0.04883993 0.13198054 -0.039428636 0.14213455 0.13618967 0.14324191 0.021977168
00000000: 2f77 143d 0209 3b3e 9c40 c5bd c941 353e
00000010: 193a 133e f87a 213e 0b64 113e 2019 c7bb
00000020: e9a8 ae3d fe56 003d a90e 3b3c b652 86bd
00000030: 158d 363c 6ead d13d e16c 613e fcb1 3b3e
00000040: 358f 403c d123 8bbd b624 04bd 9bee 263e
00000050: 3a70 d23d 7212 633d 0316 8ebb 73cb 393e
00000060: 2718 b93d 026f a03d 0e36 c03c 93f3 8c3d
00000070: 9a29 5abd 6c4e 9e3d 25d7 7cbd b01c 9f3c
00000080: 5d72 cc3d 104c f33c 0073 6a3a bf8f 8cbd
00000090: 5002 06bd 2077 90bc 04a9 02be 4403 583d
000000a0: 00a1 243a b02c 943d 0cf5 42bd 330e 2d3e
000000b0: 8ef6 f8bd 16f2 92bd bec3 bf3d 6eb2 bdbd
000000c0: 20e4 823d f9ce 16be 9eca eb3d 1ead aa3d
000000d0: 78f1 1bbe 2a82 1cbe 1003 d3bd eb06 86bd
000000e0: 3288 b73d 1858 61bd 20f3 563d f8e0 293d
000000f0: 2c3a 4bbd 0298 1ebe 04c6 2cbd f074 1dbd
00000100: 3efd f6bd 2841 403d 209e 5b3c 6b6e 1cbe
00000110: bf0f 023d 2c9a 393d 1b5a 51be f395 033e
00000120: 5864 8bbc 3c26 d5bd 1007 c83d 0cb2 f63d
00000130: ed97 b43d 2d37 1fbd 60d8 2dbc e7ad f5bd
00000140: 72f6 48bd 13cb 7abd 4463 a13d 292f 47be
00000150: 4eae 813d f5f6 9f3d 7f6a acbd c0a0 cdbd
00000160: 7028 2cbe 9660 173d aa20 123c 9549 73bd
00000170: c05d ec3c e372 34be 9146 51be 3c84 39be
00000180: b618 b6bd ed42 56be 26ac 0ebe 5fe9 36be
00000190: a656 6bbe d786 d5bd 41a3 15be 6999 363e
000001a0: 5ad0 ca3e c53a 3cbe 9af1 32be 0765 84bd
000001b0: 293f fd3d 23a5 a43d 5b7a 823e c225 febd
000001c0: fdff aabd fba3 a8be 98f2 4ebe 7d88 33be
000001d0: 67a9 b1bb ad9f b53d 3545 443c 95b7 473d
000001e0: e189 79be acca c33c 5cb7 4b3e e40e a6bd
000001f0: dcc1 2e3e 94dc 4b3e 184c 85be 4f1a 3ebe
00000200: de36 ebbc bd48 28be 8e79 0ebe 876b 97be
00000210: b782 25be 3ca4 36bd e157 5cbe 2b64 153e
00000220: bb77 83bd 72ec 7d3d 9ea3 0ebe 3c55 bcbd
00000230: 914a 5abe 82b1 6cbe 1269 0a3e 3684 63bc
00000240: ee53 29bd ddeb 5fbd 9b5d 90bd 3af4 b93d
00000250: 17ce 163e 4877 8f3e 54c0 c73e 5b37 593e
00000260: e5a2 b13d 5d3d ad3d fb54 2cbe 54f4 dc3d
00000270: f3a1 013d 5b0d d13c a789 d53c 5e38 213a
00000280: 3dec 5fbe 714e 6abe 70a8 89bd c8af 49be
00000290: 020d de3d 674f db3c 6ebc 4d3d 5f0d 0ebd
000002a0: b49b 583e 36d1 813d 5a61 c3bc c98c f2bd
000002b0: 3832 ab3c fc10 7f3d 6ba3 08be 9166 0e3c
000002c0: 1e1d 86bd 31ef aa3d dd3c 19be 2c27 94bd
000002d0: 479b 54be 5043 ddbd dc01 343d bdbd f0bd
000002e0: 55bf 6b3e bc24 01be 7ac6 49be a3e8 30be
000002f0: 1322 dcbc 800e c4bd db8c 8bbd 4509 73be
00000300: cea6 5dbe b840 1a3d 7e7d 21be 93d8 a83d
00000310: da94 d7bd 3b70 be3d b56a 18be 47e5 d0bd
00000320: 594b c1bd ac23 acbd 28bb 0d3d c0d3 6ebe
00000330: f818 d7bc 797d 4b3d 722c 5dbe f43b 813d
00000340: 6f63 20be 69e8 c63c 54c4 723c 9457 a9bd
00000350: a4fa eebd 56f9 2f3e cc9e 64bd 2bc7 aebd
00000360: 3d92 05be 7c11 34bc 081f 9a3d 634d 36bc
00000370: 79e5 0cbe 916f e3bd 0483 34bc 2567 a33d
00000380: 161e 5c3e 1812 333c bd04 b7bd 53e0 7a3b
00000390: 12d6 08bb 1af7 b9bc 450b 05be fdd8 7b3d
000003a0: 0f79 113e 8bfd 293d 32ec 27bd 4358 0dbe
000003b0: f76b 1ebb fddd 143d 29c4 933d db77 9fbd
000003c0: f6c8 033e 74cc 92bd daae 623e 9375 0fbd
000003d0: 7762 1a3d 5f84 193d e453 af3d cc5d 05bc
000003e0: e3c7 dd3d 610c 48bd e825 073e ec7f 21bd
000003f0: b88b 113e 4e75 0b3e 02ae 123e 7609 b43c

fc1.bias f4 [100]
0.15933442 0.12890024 -0.16716594 -0.20783675 -0.019195272 -0.11915108 -0.15657131 0.001431759
-0.025668181 -0.12727734 -0.11761097 0.0055717966 -0.052226588 -0.1894645 -0.26440433 0.02279918
0.21748234 -0.29091668 -0.058821704 -0.061937276 0.20173556 -0.06942287 0.10386829 0.120505385
0.014441728 0.12560593 -0.12841965 -0.041194197 0.033638112 0.093135536 0.13886254 0.05500404
-0.091098025 -0.044411883 -0.061165288 0.007532314 0.20471615 -0.23151833 -0.043070048 -0.11901701
0.068941906 -0.049562953 0.064905 0.030500479 -0.16175799 -0.007696285 0.11752885 -0.13898516
0.1720695 -0.022128776 -0.21722941 0.09940672 -0.15203993 0.066110924 0.0662199 0.18290825
0.07626077 -0.069218606 0.043671634 0.14486761 -0.19492148 0.14788377 -0.01456001 0.09985864
0.058044903 -0.07500166 0.17499208 -0.03453451 0.13793433 -0.020570498 0.0370765 0.013819232
0.10480607 0.011765894 0.031443257 -0.0030450793 -0.096192285 -0.0033778425 -0.10915305 -0.029113904
0.10707793 -0.10126983 0.09211083 0.10872925 -0.24866502 0.09087653 0.021062296 0.2204246
0.07204221 0.1374524 -0.0523468 -0.15169328 -0.015659573 0.08926919 0.19452526 -0.066829905
0.021997258 0.0310426 -0.2092823 -0.12988211
00000000: 9028 233e 6dfe 033e 8c2d 2bbe 28d3 54be
00000010: 673f 9dbc 7b05 f4bd 3b54 20be dca9 bb3a
00000020: 1446 d2bc fe54 02be 05de f0bd 9e93 b63b
00000030: 8ceb 55bd fb02 42be 0160 87be 59c5 ba3c
00000040: b1b3 5e3e 08f3 94be 07ef 70bd f1b1 7dbd
00000050: c493 4e3e 942d 8ebd e6b8 d43d 87cb f63d
00000060: ff9c 6c3c d79e 003e 7180 03be 3fbb 28bd
00000070: 1ec8 093d d8bd be3d fb31 0e3e eb4b 613d
00000080: 9a91 babd 3ce9 35bd 7488 7abd a1d1 f63b
00000090: 1ca1 513e 2413 6dbe 386a 30bd 31bf f3bd
000000a0: 6a31 8d3d 8602 4bbd eaec 843d 24dc f93c
000000b0: e3a3 25be 1e31 fcbb f7b2 f03d 2052 0ebe
000000c0: fd32 303e 6847 b5bc 6371 5ebe c095 cb3d
000000d0: 5bb0 1bbe 2a65 873d 4d9e 873d 4d4c 3b3e
000000e0: 9b2e 9c3d 7cc2 8dbd 07e1 323d 2d58 143e
000000f0: 7f99 47be d86e 173e 1c8d 6ebc b082 cc3d
00000100: 7ec0 6d3d 789a 99bd 2031 333e 0f74 0dbd
00000110: a83e 0d3e 7683 a8bc 87dd 173d 0f6a 623c
00000120: 91a4 d63d bcc5 403c a5ca 003d f48f 47bb
00000130: 7600 c5bd cb5e 5dbb a28b dfbd 4880 eebc
00000140: ac4b db3d 8e66 cfbd 9aa4 bc3d 71ad de3d
00000150: 0ba2 7ebe 791d ba3d d68a ac3c fdb6 613e
00000160: de8a 933d 52c0 0c3e 9969 56bd 7c55 1bbe
00000170: 8148 80bc c4d2 b63d a131 473e 1ede 88bd
00000180: 9833 b43c 0d4d fe3c 194e 56be d1ff 04be

fc2.weight f4 [2, 100]
-0.15560722 0.079932906 0.048008792 -2.8173332 -0.4764208 0.13995415 -1.0199316 -0.15031391
0.6519396 -0.15693986 2.0417817 -0.65812093 1.5153096 1.2984682 0.09262925 -1.313965
1.4704237 0.14314432 1.8914223 -0.5867229 -0.025038838 -0.1671723 -0.16020077 0.15870035
-1.4418739 -1.2354913 0.8393123 -0.982947 -0.098177195 -0.63610005 0.40002158 0.3737563
0.034321144 0.087606564 2.1918626 -0.08424102 -0.17581828 0.15517206 0.95482177 -2.0816154
0.8049089 -0.6942535 -0.05896285 0.17461354 0.9878261 0.3179929 -0.06693466 -0.6780699
-0.10585138 -0.042603407 0.11007088 0.04901364 0.034704424 -0.31735316 0.13554105 1.0192704
0.18767564 -0.036192365 -0.7936709 0.2538637 0.07197268 1.0078474 1.7749909 -0.0443444
-1.213631 -1.249698 -0.12137393 -0.7792772 -0.13730629 0.13685407 -0.3337822 3.2394125
0.671572 0.13465779 -0.00049470714 0.15887235 0.019445885 0.09784174 -0.12447359 1.4975517
1.1477463 -1.210866 0.7919103 0.11738719 0.15642758 0.9255694 -2.5383744 0.860559
-0.10222647 0.16713274 -0.021090398 1.3270038 -0.10707843 0.86202985 -0.13159256 0.8223429
0.98317784 1.5428708 0.16298817 0.102389954 0.17222261 -0.18843338 -0.016874587 2.7203548
0.6292263 0.0006284557 0.9817327 0.040268052 -0.58601826 0.2673622 -2.0952868 0.6836713
-1.5818053 -1.2662444 -0.05236157 1.2631675 -1.5010457 -0.042305443 -1.8142844 0.5724291
0.100765444 0.14687157 0.15334463 -0.0773944 1.4821109 1.3771772 -0.7663782 0.9560324
0.12075885 0.63180184 -0.34839848 -0.42768702 -0.10543201 -0.11153507 -2.1637707 0.16263391
-0.008605073 -0.05587086 -1.0860362 2.034462 -0.71640605 0.6158776 0.09017471 -0.017180003
-1.0098593 -0.36860967 0.066509984 0.55106777 0.17399733 0.02532085 -0.14785245 -0.17590761
-0.055066258 0.23117642 -0.17153713 -1.0273268 -0.028054327 0.11997561 0.8421487 -0.1277635
-0.07785498 -1.1051159 -1.8761252 0.15197007 1.2744151 1.2050089 0.07240703 0.6780913
0.07582447 -0.09207746 0.27297375 -3.2915723 -0.5349569 -0.13509282 0.1304947 -0.11243789
-0.16423617 -0.06949922 0.04509525 -1.3652723 -1.1716878 1.226661 -0.81191784 -0.20769976
-0.08877442 -0.74365115 2.529659 -0.7831101 0.09922753 -0.2201207 -0.031348992 -1.3026701
0.08617957 -0.9519532 0.16902179 -1.0045698 -0.96650654 -1.5223095 -0.13069548 -0.14582907
00000000: 8057 1fbe ddb3 a33d dea4 443d 304f 34c0
00000010: 6ded f3be 2450 0f3e 1e8d 82bf e4eb 19be
00000020: 83e5 263f d8b4 20be 8dac 0240 9d7a 28bf
00000030: aaf5 c13f 3534 a63f 67b4 bd3d 0130 a8bf
00000040: d836 bc3f 6d94 123e 201a f23f 7933 16bf
00000050: 401e cdbc 372f 2bbe ac0b 24be 5882 223e
00000060: 538f b8bf 9424 9ebf 2cdd 563f 6aa2 7bbf
00000070: 2011 c9bd 74d7 22bf a1cf cc3e fc5c bf3e
00000080: 5494 0c3d 126b b33d 7a47 0c40 8e86 acbd
00000090: b509 34be 6de5 1e3e 336f 743f 3039 05c0
000000a0: 820e 4e3f 99ba 31bf 0883 71bd e4cd 323e
000000b0: 2ce2 7c3f f7cf a23e 0a15 89bd fd95 2dbf
000000c0: 9cc8 d8bd e980 2ebd d76c e13d 87c2 483d
000000d0: 3a26 0e3d 1d7c a2be 46cb 0a3e 7477 823f
000000e0: 0b2e 403e 723e 14bd 042e 4bbf 6cfa 813e
000000f0: 6a66 933d 2501 813f e732 e33f 79a2 35bd
00000100: 4358 9bbf 1bf6 9fbf e592 f8bd b67e 47bf
00000110: 059a 0cbe 7923 0c3e 80e5 aabe 8952 4f40
00000120: 25ec 2b3f bbe3 093e 3caf 01ba 6faf 223e
00000130: fa4c 9f3c 4061 c83d 02ec febd c6af bf3f
00000140: 5ae9 923f a8fd 9abf a2ba 4a3f b268 f03d
00000150: 8d2e 203e 1ef2 6c3f ba74 22c0 984d 5c3f
00000160: 1d5c d1bd d824 2b3e c5c5 acbc 43db a93f
00000170: f04b dbbd fdad 5c3f 33c0 06be 1085 523f
00000180: 8bb1 7b3f ca7c c53f 5fe6 263e d3b1 d13d
00000190: 205b 303e aef4 40be 933c 8abc 4b1a 2e40
000001a0: fa14 213f f3be 243a d652 7b3f 1df0 243d
000001b0: 4b05 16bf b3e3 883e 2e19 06c0 1505 2f3f
000001c0: 9978 cabf 4c14 a2bf 1679 56bd 79af a13f
000001d0: 4422 c0bf 7948 2dbd 793a e8bf b78a 123f
000001e0: 1d5e ce3d 8065 163e 6006 1d3e f580 9ebd
000001f0: cfb5 bd3f 5847 b03f 5d31 44bf 8abe 743f
00000200: 6a50 f73d c4bd 213f 4961 b2be cbf9 dabe
00000210: bdec d7bd 806c e4bd 387b 0ac0 8189 263e
00000220: 4bfc 0cbc d8d8 64bd 3c03 8bbf a034 0240
00000230: 6366 37bf 28aa 1d3f 85ad b83d 14bd 8cbc
00000240: 1243 81bf 68ba bcbe 6336 883d c712 0d3f
00000250: 5b2c 323e ac6d cf3c a266 17be 2021 34be
00000260: 288d 61bd 83b9 6c3e 6ea7 2fbe 727f 83bf
00000270: 30d2 e5bc c6b5 f53d 0f97 573f 6fd4 02be
00000280: 6f72 9fbd 7074 8dbf df24 f0bf 0b9e 1b3e
00000290: 0920 a33f bb3d 9a3f 234a 943d 6497 2d3f
000002a0: dc49 9b3d 1b93 bcbd 37c3 8b3e 1fa9 52c0
000002b0: eff2 08bf c655 0abe 67a0 053e d645 e6bd
000002c0: 872d 28be 9b55 8ebd ccb5 383d 3ec1 aebf
000002d0: def9 95bf 3a03 9d3f d9d9 4fbf 3faf 54be
000002e0: 5dcf b5bd ec5f 3ebf efe5 2140 e779 48bf
000002f0: ce37 cb3d 5267 61be cd67 00bd e5bd a6bf
00000300: ea7e b03d 34b3 73bf 0c14 2d3e be95 80bf
00000310: f96c 77bf 0adb c2bf 09d5 05be 3754 15be

fc2.bias f4 [2]
-0.029839963 0.0039037252
00000000: f072 f4bc a4d5 7f3b
